----------------------------------------------------------------
        Layer (type)               Output Shape         Param #
================================================================
            Conv2d-1            [-1, 8, 26, 26]              72
              ReLU-2            [-1, 8, 26, 26]               0
       BatchNorm2d-3            [-1, 8, 26, 26]              16
           Dropout-4            [-1, 8, 26, 26]               0
            Conv2d-5           [-1, 16, 24, 24]           1,152
              ReLU-6           [-1, 16, 24, 24]               0
       BatchNorm2d-7           [-1, 16, 24, 24]              32
           Dropout-8           [-1, 16, 24, 24]               0
         MaxPool2d-9           [-1, 16, 12, 12]               0
           Conv2d-10           [-1, 16, 10, 10]           2,304
             ReLU-11           [-1, 16, 10, 10]               0
      BatchNorm2d-12           [-1, 16, 10, 10]              32
          Dropout-13           [-1, 16, 10, 10]               0
        MaxPool2d-14             [-1, 16, 5, 5]               0
AdaptiveAvgPool2d-15             [-1, 16, 1, 1]               0
           Linear-16                   [-1, 10]             170
================================================================
Total params: 3,778
Trainable params: 3,778
Non-trainable params: 0
----------------------------------------------------------------
Input size (MB): 0.00
Forward/backward pass size (MB): 0.52
Params size (MB): 0.01
Estimated Total Size (MB): 0.53
----------------------------------------------------------------
EPOCH: 1
Loss=0.14089377224445343 Batch_id=468 Accuracy=89.17: 100%|████████████████████████████████████████████████████████████████████████████████████████████████████████████████████████████████████| 469/469 [00:10<00:00, 45.85it/s]
…
